checkpoint.pt (torch_old, 474193 bytes, 6 tensors)

fc1.weight f4 [128, 784]
0	0x3c60ff20	0.013732702
1	0xbcd469be	-0.025929328
2	0xbd03846b	-0.032108705
3	0x3cbd2af8	0.023091778
4	0xbd0888d5	-0.03333362
5	0xbcf0408e	-0.029327657
6	0x3c594360	0.013260692
7	0xbc73f92e	-0.014890952
8	0xbc535998	-0.012899779
9	0x3cf1d2b2	0.029519413
10	0x3d086907	0.033303287
11	0xbc90356e	-0.017603602
12	0x3caf23dd	0.021379406
13	0x3c94b670	0.0181534
14	0xbd09e2fd	-0.03366374
15	0xbcfb1a56	-0.030652206
16	0xbc3717ee	-0.011175139
17	0xbc8f3a03	-0.017483717
18	0x3d0761e7	0.03305235
19	0xbcb09140	-0.021553636
20	0x3cf2fcaa	0.029661495
21	0x3c58461c	0.013200309
22	0xbc0fd3ae	-0.008778496
23	0x3ce92b16	0.028462928
24	0xbc9f9ee7	-0.01948495
25	0x3bb799f8	0.0056030713
26	0xbb785b00	-0.0037896037
27	0x3ce1a602	0.027544979
28	0x3b583360	0.0032989606
29	0xbc4652d2	-0.012104707
30	0xbc9ab24c	-0.018883847
31	0xbc0c3fd2	-0.008560138
32	0xbcfb4ae8	-0.030675367
33	0xbd268090	-0.04064995
34	0xbd46904d	-0.04847746
35	0xbe05b0db	-0.13055746
36	0xbdd8b240	-0.105808735
37	0xbdbb49d3	-0.0914494
38	0x3aee6497	0.0018187937
39	0xbe0a3d53	-0.13499956
40	0xbe379bdc	-0.1793055
41	0xbe4b44b3	-0.19850425
42	0xbd6004c5	-0.05469205
43	0xbdf8268c	-0.12116727
44	0xbe14a615	-0.1451648
45	0xbe01a96f	-0.1266229
46	0x3c9a5cf6	0.018843155
47	0xbdddccb3	-0.10830059
48	0xbdc9ac8e	-0.09847365
49	0xbda61f22	-0.08111407
50	0xbd637014	-0.055526808
51	0xbd1fc8a4	-0.039009705
52	0x3cb06ada	0.021535326
53	0x3d09ed23	0.033673417
54	0x3c2cc308	0.010544546
55	0xbb9382d4	-0.00450168
56	0xbbd0f664	-0.0063770283
57	0xbbfc1ec0	-0.0076940954
58	0xbb940db0	-0.0045182332
59	0x3da59749	0.08085496
60	0x3c5cf986	0.013487225
61	0x3be5764b	0.007002627
62	0xbc2eb1ab	-0.0106624765
63	0x3a86f725	0.0010297043
64	0xbd8b630b	-0.06806
65	0xbca292cb	-0.019845387
66	0x3dd482fd	0.103765465
67	0x3cabb825	0.02096183
68	0xbc9d58ec	-0.01920744
69	0x3d82ddaf	0.06389939
70	0x3d11e2e2	0.035616763
71	0xbdc369d4	-0.095416695
72	0xbd971bdf	-0.07378363
73	0xbd86eb20	-0.06587815
74	0xbd8cea6a	-0.068806484
75	0x3d425ab8	0.047449797
76	0x3d9272e1	0.07150818
77	0x3e3adb9a	0.18247834
78	0x3d660a4b	0.05616216
79	0xbb6d399b	-0.0036197666
80	0x3d1f157c	0.03883885
81	0xbcf9e69a	-0.030505467
82	0xbaa09f20	-0.0012254454
83	0xbcf89c8c	-0.030348085
84	0xbc9d715e	-0.019219097
85	0x3b65c0d0	0.0035057552
86	0x3dc9fbe8	0.098625004
87	0x3c45c96d	0.012071949
88	0x3df2d6df	0.1185739
89	0x3d1f892a	0.03894917
90	0x3df85ac0	0.12126684
91	0x3d938643	0.07203343
92	0xbda597c8	-0.080855906
93	0xbb550d7d	-0.003250926
94	0x3dbddcf0	0.09270656
95	0x3e088bc7	0.13334571
96	0x3ce9e67e	0.02855229
97	0xbcffbf83	-0.03121925
98	0xbce66cdf	-0.028128086
99	0xbd1d4220	-0.03839314
100	0xbe03d182	-0.1287289
101	0xbe20094b	-0.15628545
102	0xbdd50f2b	-0.10403284
103	0xbc717f48	-0.014739819
104	0xbd9f7262	-0.07785489
105	0xbd96ef94	-0.07369915
106	0xbd37b9d4	-0.044854954
107	0xbce10e70	-0.027472705
108	0x3ce294ec	0.027658902
109	0x3d4aa7fc	0.04947661
110	0x3ceccee4	0.028907247
111	0xbd0a934a	-0.033831872
112	0x3ccc6d68	0.024954513
113	0xbd01bcae	-0.03167408
114	0x3d23a1c7	0.039949205
115	0xbd3dded0	-0.04635507
116	0xbdf0a39f	-0.11749958
117	0xbcb421b3	-0.021988725
118	0x3e0783b3	0.13233833
119	0x3d4b1637	0.049581733
120	0x3b53746a	0.0032265433
121	0x3d9157c4	0.07096818
122	0x3dd5da9d	0.10442088
123	0xbbccffd7	-0.0062560844
124	0x3d901f11	0.070371754
125	0x3e23be28	0.15990508
126	0x3d623ed9	0.055235717
127	0xbdd859e8	-0.10564023
128	0xbd8fc492	-0.07019915
129	0xbd7c5a11	-0.06160933
130	0xbd7d7638	-0.06188032
131	0x3bdd10ef	0.0067464034
132	0x3c00c044	0.00785834
133	0xbc862291	-0.016373904
134	0xbdc8ee9d	-0.09811137
135	0xbd5d5087	-0.054031875
136	0xbd7be7fd	-0.06150054
137	0x3d0ae844	0.033912912
138	0xbdb7157c	-0.08939645
139	0xbb0b37f0	-0.0021243058
140	0xbc445ddc	-0.011985268
141	0x3c85d298	0.01633577
142	0x3d014f3b	0.0315697
143	0xbb969acd	-0.0045960904
144	0xbe29a90e	-0.16568395
145	0xbd4927db	-0.049110275
146	0x3e1fbfbc	0.15600485
147	0x3d9d0156	0.076662704
148	0x3d0ecc17	0.034862604
149	0x3e0474c4	0.12935168
150	0x3ddc9122	0.107698694
151	0x3cbe0379	0.023195015
152	0x3d68ae09	0.056806598
153	0xbd01f243	-0.03172518
154	0xbd0e67c7	-0.03476694
155	0xbdd1888d	-0.10231123
156	0xbdd8b261	-0.10580898
157	0xbe128052	-0.14306763
158	0xbd906c61	-0.07051922
159	0xbd3dfaf3	-0.046381902
160	0x3d6e734f	0.058215436
161	0x3d2dc37a	0.04242275
162	0x3cb3daa1	0.021954836
163	0x3c9f3e87	0.019438995
164	0x3cc93ed3	0.02456609
165	0x3dd99cfc	0.106256455
166	0xbd152987	-0.036416557
167	0xbd7f9eac	-0.06240718
168	0x3ccc2942	0.024922017
169	0xba00b600	-0.00049099326
170	0x3d6abf3a	0.057311274
171	0xbd2c621a	-0.042085744
172	0xbc540219	-0.012939953
173	0xbd451723	-0.048117768
174	0x3c9f4985	0.019444237
175	0xbd1c6671	-0.038183633
176	0xbd94761b	-0.07249089
177	0x3d1c28d9	0.038124893
178	0xbd45184e	-0.048118882
179	0xbb8e3814	-0.004340181
180	0x3cc8b61c	0.024500899
181	0x3ac6c174	0.0015163855
182	0xbda1b80c	-0.07896432
183	0xbe288e18	-0.16460454
184	0xbe4c74e8	-0.19966471
185	0xbe2638dc	-0.16232628
186	0xbe56160e	-0.2090685
187	0xbddb40f5	-0.10705749
188	0xbb7629ef	-0.0037561615
189	0xbbeb9500	-0.007189393
190	0x3d04886e	0.032356672
191	0x3cf26429	0.029588776
192	0xbc8c52ad	-0.017129267
193	0x3d3ec199	0.046571348
194	0xbde72141	-0.112856396
195	0xbd7e8275	-0.062136132
196	0xbbc2b05c	-0.005941434
197	0x3b6b3aba	0.0035893158
198	0x3dd0b8ea	0.101915196
199	0xbe4531be	-0.19257256
200	0xbe5ae221	-0.21375324
201	0xbdf49500	-0.11942482
202	0x3d83c7b1	0.064345725
203	0xbca604f2	-0.02026603
204	0xbd216448	-0.039402276
205	0x3bba86ac	0.0056923237
206	0x3d079fea	0.03311149
207	0xbb64b4ee	-0.0034897882
208	0x3cb5ac23	0.022176808
209	0x3d8b85a6	0.06812601
210	0xbcd70748	-0.02624859
211	0xbe2c2fd0	-0.16815114
212	0xbe5d8976	-0.21634468
213	0xbe4b17fa	-0.19833365
214	0xbddc5954	-0.107592255
215	0x3c171259	0.009220683
216	0xbc364665	-0.011125182
217	0xba81a154	-0.0009889998
218	0xbd56b64a	-0.05241994
219	0xbd2d85cb	-0.042363923
220	0xbc467301	-0.01211238
221	0xbce07750	-0.027400643
222	0xbdd5d7d9	-0.1044156
223	0xbcbaa772	-0.022784922
224	0xbe441056	-0.19146857
225	0x3d1d594b	0.038415235
226	0xbd0e2560	-0.034703612
227	0xbe5eed56	-0.21770224
228	0xbe646f1b	-0.22308008
229	0xbdd8f766	-0.105940625
230	0xbd245291	-0.040117804
231	0xbd3ebf8c	-0.046569392
232	0xbd507eaa	-0.050902046
233	0x3cf59816	0.029979747
234	0xbcb76a87	-0.022389663
235	0xbc91b233	-0.017785167
236	0x3da0c799	0.0785057
237	0x3d6cbf93	0.057799887
238	0xbd1a24ab	-0.037632626
239	0xbe20e0b4	-0.15710717
240	0xbe92d8b4	-0.28680956
241	0xbdda7a31	-0.106678374
242	0x3d628064	0.055298224
243	0x3cfd7c52	0.03094307
244	0x3d4a4aa4	0.04938759
245	0xbb2e5294	-0.0026599513
246	0xbd234d3d	-0.039868582
247	0x3b0dd786	0.0021643355
248	0xbd93038a	-0.071784094
249	0xbd6cbe4b	-0.057798665
250	0xbe250e84	-0.16118819
251	0xbc27b2be	-0.010235487
252	0xbcee161a	-0.029063273
253	0x3d80b658	0.06284779
254	0xbda6b957	-0.081408195
255	0xbdef1f7b	-0.11675926

fc1.bias f4 [128]
0	0x3dd5f36d	0.104468204
1	0x3d32b7fe	0.0436325
2	0xbe24ff1c	-0.16112942
3	0x3d17e56e	0.037084036
4	0xbd017d07	-0.031613376
5	0xbcc12ab4	-0.023579933
6	0xbe28d41a	-0.1648716
7	0x3e19bfa3	0.1501451
8	0xbd89b2e6	-0.06723575
9	0xbe99c8d8	-0.30036044
10	0x3d9a9ec4	0.075498134
11	0x3e26e1ad	0.16297026
12	0xbe032f54	-0.12811023
13	0x3d95c361	0.07312656
14	0x3e4297a0	0.19003153
15	0xbc41a814	-0.011819858
16	0x3cd46268	0.02592583
17	0x3db3a8e6	0.08772449
18	0xbd24deb5	-0.040251452
19	0x3dec95a4	0.11551979
20	0x3c6ab7e9	0.014326074
21	0x3d004c37	0.031322684
22	0x3e4b1f70	0.19836211
23	0x3e506fce	0.2035515
24	0x3c855fc2	0.016281012
25	0xbe8d279e	-0.27569288
26	0xbe67db69	-0.22642292
27	0xbe479698	-0.1949104
28	0x3c70ee27	0.014705217
29	0xbd25ffc6	-0.040527128
30	0x3c0c5f8d	0.008567703
31	0x3b6b5c6c	0.0035913242
32	0x3dc48636	0.09595911
33	0x3e23d093	0.15997534
34	0xbe53de54	-0.2069028
35	0x3d88141e	0.06644462
36	0x3d69a2e1	0.0570401
37	0xbcc536ce	-0.024073984
38	0xbdedfc9d	-0.11620448
39	0xbcb30118	-0.021851107
40	0xbdcd55d3	-0.10026135
41	0xbd1fad01	-0.03898335
42	0x3e29b3b1	0.16572453
43	0x3e3f0e0e	0.18657705
44	0x3cb50013	0.022094762
45	0x3dc4961e	0.09598945
46	0xbd1af135	-0.03782769
47	0x3e1fa1b2	0.15589026
48	0x3c0d37b2	0.008619236
49	0xbc759353	-0.014988738
50	0xbdc31fea	-0.095275715
51	0xbc28ce31	-0.010303066
52	0x3e499974	0.19687444
53	0x3e53821a	0.20655099
54	0xbe159cff	-0.1461067
55	0xbe078ac5	-0.1323653
56	0x3c4376ac	0.011930149
57	0x3df08e6a	0.11745913
58	0xbebbb458	-0.3666103
59	0x3ddf6fcd	0.10909996
60	0x3da0b079	0.078461595
61	0xbde8a08e	-0.113587484
62	0x3c601c2c	0.013678592
63	0x3d4f5bb4	0.050624564
64	0x3d00a89b	0.031410795
65	0xbe51ee28	-0.20501006
66	0xbd60da30	-0.05489558
67	0xbe0ec798	-0.13943326
68	0x3dbce557	0.092234306
69	0xbd3a50c6	-0.045487188
70	0x3cfa55b6	0.030558448
71	0x3c121d37	0.008918098
72	0x3e4467a6	0.19180164
73	0xbda19e3c	-0.07891509
74	0x3d6f9b72	0.058497854
75	0xbd2cd07d	-0.042191017
76	0xbd62fd49	-0.055417333
77	0x3db74078	0.08947843
78	0xbc524432	-0.012833642
79	0x3d941b84	0.07231811
80	0xbe3cf944	-0.18454462
81	0x3dc66f87	0.09689241
82	0x3d7e174c	0.062033936
83	0x3e638a54	0.22220737
84	0x3dd0fa1b	0.10203954
85	0x3df9baed	0.121938564
86	0x3da83062	0.08212353
87	0xbe53fd5a	-0.20702115
88	0x3cf8991e	0.03034645
89	0xbdd6426e	-0.10461889
90	0xbde80a4e	-0.113300905
91	0xbcb35abc	-0.021893851
92	0xbe0c6380	-0.13709831
93	0x3de99f3a	0.11407323
94	0xbddca6bd	-0.1077399
95	0x3ca8b6b6	0.020594936
96	0xbcbebd40	-0.0232836
97	0xbe37da5d	-0.17954393
98	0xbe271a0d	-0.16318531
99	0x3c0ced11	0.008601443
100	0x3e0c78cb	0.13717954
101	0x3e059c5c	0.13047928
102	0x3ca12a9e	0.019673642
103	0xbdeae0c4	-0.11468652
104	0xbe4a8d6b	-0.19780509
105	0xbd8c0645	-0.06837133
106	0x3b2c7f01	0.0026320817
107	0xbe40888f	-0.18802093
108	0xbe22177a	-0.15829268
109	0x3da118d8	0.07866067
110	0xbe57d80f	-0.21078514
111	0xbc96a288	-0.018388048
112	0xbdf69c1d	-0.12041495
113	0xbdf3ec66	-0.11910324
114	0xbc11209b	-0.008857871
115	0xbddc266d	-0.10749517
116	0xbd028d57	-0.031873073
117	0xbe684884	-0.22683913
118	0x3de33fc2	0.11096145
119	0x3de09dd4	0.10967603
120	0x3d74b08d	0.059738684
121	0xbe72d4dc	-0.23714012
122	0x3e12c8d6	0.14334425
123	0x3dd0a3b2	0.101874724
124	0x3cb9a3da	0.022661138
125	0xbde9d7f1	-0.11418141
126	0x3e6636a1	0.22481777
127	0x3d660b15	0.056162912

fc2.weight f4 [128, 128]
0	0x3e7947fd	0.24343868
1	0x3e4bb166	0.19891891
2	0x3cc0573a	0.023479093
3	0x3e655c33	0.22398452
4	0xba71db57	-0.00092261046
5	0x3d4d47e9	0.050117407
6	0xbdfaeee2	-0.122525945
7	0xbe04754f	-0.12935375
8	0x3cac2c80	0.021017313
9	0xbcff7d5a	-0.031187702
10	0xbd598fd7	-0.053115692
11	0x3cbfcdcb	0.02341356
12	0x3df30d7c	0.11867806
13	0x3da7d511	0.08194936
14	0xbd253355	-0.040332157
15	0xbd279485	-0.040913124
16	0xbdeef5d8	-0.11667985
17	0xbdc932e0	-0.09824157
18	0xbea507b8	-0.3223245
19	0xbd36ca78	-0.044626683
20	0xbe6b8a8a	-0.23002067
21	0xbe8dcfe5	-0.27697673
22	0xbed71864	-0.42010796
23	0x3d576af8	0.052592248
24	0x3da661b3	0.081241034
25	0xbe180ffb	-0.14849846
26	0xbddd661b	-0.10810491
27	0xbe27eb83	-0.16398434
28	0xbce24948	-0.027622834
29	0x3d30aef3	0.043135595
30	0x3da76f12	0.08175482
31	0x3dc3d274	0.09561625
32	0x3cc98eae	0.024604168
33	0xbe93b7f8	-0.28851295
34	0x3c5157c2	0.012777271
35	0x3e92503a	0.28576833
36	0x3d9a5034	0.07534829
37	0xbd63ef2b	-0.05564801
38	0x3ccd58a7	0.025066687
39	0xbe87b1ae	-0.26502746
40	0xbd5102a5	-0.051027913
41	0x3d702676	0.05863043
42	0xbe17d0c5	-0.14825733
43	0x3b36b9f7	0.002788184
44	0x3df160b8	0.11786026
45	0xbdfc6aa4	-0.123250276
46	0x3e414652	0.18874481
47	0x3d3ed7b4	0.04659243
48	0xbe01af47	-0.12664519
49	0xbd9c719c	-0.07638857
50	0xbda2e1a6	-0.07953195
51	0x3dec5a0a	0.11540611
52	0xbd265505	-0.040608425
53	0x3cf93e3b	0.030425182
54	0x3de0df36	0.10980074
55	0x3ca766d9	0.020434784
56	0x3bfb8dcf	0.007676817
57	0x3daeb430	0.08530462
58	0xbe3a3b4a	-0.1818668
59	0xbdbe6702	-0.09296991
60	0x3cd9dab3	0.026593542
61	0xbd7832a0	-0.060595155
62	0x3dacdae2	0.08440186
63	0x3db133e0	0.086524725
64	0xbe203315	-0.15644486
65	0xbe79b739	-0.243863
66	0xbde6a98e	-0.11262809
67	0x3c60db3c	0.013724145
68	0x3cb6b32c	0.022302233
69	0xbe09bf81	-0.13451959
70	0x3da4644d	0.08026943
71	0x3db18d32	0.08669509
72	0x3d456e11	0.04820067
73	0x3cbec9a5	0.023289511
74	0xbd93f63b	-0.07224699
75	0xbd2a8010	-0.041626036
76	0xbd827e93	-0.06371798
77	0x3e3bc8fe	0.18338391
78	0x3cb0854e	0.02154794
79	0x3c80af5d	0.01570862
80	0xbe8de002	-0.27709967
81	0x3dbf9ac5	0.09355692
82	0xbe6789e4	-0.22611195
83	0x3ce845e2	0.028353635
84	0x3da2ed6c	0.07955441
85	0xbcfb969b	-0.030711463
86	0x3de4e87d	0.11177156
87	0x3c5b5510	0.01338698
88	0x3e7e8a4e	0.24857447
89	0xbea680e7	-0.3252022
90	0x3e00c4f9	0.12575139
91	0x3d4d5891	0.05013329
92	0x3c2e5825	0.0106411325
93	0x3d988996	0.074481174
94	0xbd8f8f53	-0.07009759
95	0x3eaae1de	0.33375448
96	0xbd7a0180	-0.061036587
97	0xbc3a5ac8	-0.011374183
98	0x3da09673	0.07841196
99	0xbe57558f	-0.21028732
100	0x3da910ed	0.082551815
101	0x3e14ae55	0.14519627
102	0x3db6405b	0.088989936
103	0xbe22cbad	-0.15898009
104	0xbe240d4b	-0.16020696
105	0xbe2c3859	-0.1681837
106	0xbd8b9f33	-0.06817474
107	0x3c017bc2	0.007903041
108	0xbdcc3e13	-0.09972777
109	0x3e6e7cf0	0.23289847
110	0xbdb558bb	-0.088548146
111	0x3e5cadaf	0.2155063
112	0xbc70cfc8	-0.014697976
113	0xbe215fe8	-0.15759242
114	0xbe162971	-0.14664246
115	0xbe22eae6	-0.15909919
116	0x3cc56142	0.024094228
117	0x3d28781b	0.041130167
118	0xbdb0965f	-0.08622431
119	0xbc9510c4	-0.018196471
120	0x3e14a8e0	0.14517546
121	0x3d3db2ee	0.04631322
122	0x3dc40550	0.09571326
123	0x3ea2b1aa	0.31776172
124	0x3c181078	0.00928127
125	0x3d5023e1	0.050815467
126	0x3da4321e	0.080173716
127	0x3e3c4cfe	0.18388745
128	0x3d208cf9	0.039196942
129	0xbe585388	-0.21125615
130	0xbbdcfef9	-0.0067442623
131	0xbd85339c	-0.06503984
132	0x3da09f3e	0.07842873
133	0xbc6c4cc5	-0.0144226
134	0xbda8d360	-0.082434416
135	0x3e2137cc	0.15743941
136	0x3adea5c2	0.0016986656
137	0x3ba8fbff	0.0051569934
138	0x3e21ee15	0.15813477
139	0xbc9b0c67	-0.018926812
140	0xbe6e627d	-0.23279758
141	0xbd3cee4c	-0.046125695
142	0xbd8b20f8	-0.06793398
143	0x3e17babf	0.14817332
144	0x3de4fb99	0.11180801
145	0x3d157eec	0.036497995
146	0x3edc6080	0.43042374
147	0x3da49820	0.08036828
148	0x3c0859e5	0.008322214
149	0x3dd4be59	0.103878684
150	0x3e89416b	0.26807722
151	0xbd0d470e	-0.03449159
152	0xbc90bb0e	-0.01766732
153	0x3d07f9dd	0.033197273
154	0x3ccff944	0.025387414
155	0x3d69b6d6	0.05705913
156	0x3d8d7600	0.06907272
157	0x3d6d9ad4	0.058008984
158	0x3e518d93	0.20464163
159	0x3cf34712	0.029696975
160	0x3c8ebc5a	0.017423797
161	0x3ef3f2d0	0.4764619
162	0xbdf1cf58	-0.11807126
163	0xbe7c7ff7	-0.2465819
164	0xbc4cf48f	-0.012509479
165	0xbd6f0ed9	-0.05836377
166	0xbdc71bd4	-0.09722105
167	0x3ec8d406	0.3922426
168	0xbc17d53d	-0.009267149
169	0xbcb2f49a	-0.02184515
170	0x3ed691f5	0.4190823
171	0x3d0020c4	0.031281248
172	0xbd49d2c1	-0.049273256
173	0x3e035ab4	0.12827569
174	0xbe47cfe1	-0.19512893
175	0xbdff73c2	-0.12473251
176	0x3e1c3d29	0.15257706
177	0xbd0c3560	-0.03423059
178	0x3de48808	0.111587584
179	0x3c95a88c	0.018268846
180	0x3df0b099	0.11752433
181	0xbdb2b4a5	-0.087258615
182	0xbdfa7245	-0.122288264
183	0x3d1d1942	0.038354166
184	0x3b50853b	0.0031817693
185	0xbc39003d	-0.011291561
186	0x3c9520b4	0.01820407
187	0xbca75266	-0.020425033
188	0x3c959a4f	0.018262057
189	0xbb8a6240	-0.004223138
190	0xbe457dd6	-0.19286284
191	0xbcf80b8a	-0.03027894
192	0xbe4b0d62	-0.19829324
193	0x3d6cdbc5	0.057826776
194	0x3e0ba43c	0.13636869
195	0xbdacbd76	-0.08434574
196	0xbc32d109	-0.010914096
197	0x3d6b6181	0.057466034
198	0xbb5d5d55	-0.0033777554
199	0x3d6dbc1c	0.058040723
200	0x3caf1bba	0.021375526
201	0xbc79effe	-0.0152549725
202	0x3d0b3680	0.033987522
203	0xbd9b310c	-0.07577714
204	0x3e6892e9	0.22712292
205	0xbe9277e1	-0.28607085
206	0x3ccc36ae	0.024928417
207	0x3c5ab14f	0.013347938
208	0x3df5c4a7	0.12000399
209	0xbe093ebf	-0.13402842
210	0x3ea1fb20	0.31636906
211	0x3dbbdab0	0.09172571
212	0x3c8324c9	0.016008751
213	0x3ce6e378	0.028184637
214	0x3ccab8b1	0.02474627
215	0xbe0845ea	-0.1330792
216	0xbd7ec136	-0.06219598
217	0x3ecb0ec5	0.39659706
218	0xbdd38418	-0.10327929
219	0xbd891506	-0.06693463
220	0x3d3ab0bb	0.0455787
221	0xbc7b5f04	-0.015342478
222	0xbd3fcfc4	-0.046829
223	0xbe50e8f8	-0.2040137
224	0x3c46a110	0.012123361
225	0x3d1513e3	0.03639592
226	0xbca6972f	-0.020335762
227	0xbda2b48e	-0.07944594
228	0xbdd230a9	-0.102631874
229	0xbe093038	-0.133973
230	0xbd8a61d4	-0.067569405
231	0x3e343ba1	0.17600872
232	0x3d56d00c	0.052444503
233	0x3dfd2023	0.12359645
234	0x3d626c4f	0.055279072
235	0x3c90cffa	0.017677296
236	0x3e0e7149	0.13910402
237	0xbca286ff	-0.019839762
238	0x3dc7cbe0	0.09755683
239	0xbd2f5bae	-0.042812042
240	0xbda264a2	-0.079293504
241	0x3e8b55e5	0.2721397
242	0x3decf078	0.11569303
243	0x3a94f13c	0.0011363397
244	0x3d58de52	0.052946396
245	0xbdf4d531	-0.119547255
246	0x3d73be5b	0.05950771
247	0x3d505992	0.05086667
248	0xbcdb895c	-0.026798896
249	0xbd033aa1	-0.032038335
250	0x3c56f753	0.01312049
251	0xbe5fc3b1	-0.21851994
252	0xbd9b4680	-0.07581806
253	0x3d06fda0	0.03295672
254	0xbcc38625	-0.023867676
255	0xbd77c7a6	-0.060493134

fc2.bias f4 [128]
0	0x3e352296	0.17688975
1	0xbe3aff17	-0.18261372
2	0x3dcd4214	0.10022369
3	0x3dc169aa	0.09443982
4	0xbcb8786a	-0.022518355
5	0x3ebda9fd	0.37043753
6	0x3de4811e	0.1115744
7	0x3d3a8770	0.04553932
8	0x3e3e5082	0.18585399
9	0x3be70c75	0.0070510455
10	0x3dcded39	0.10055012
11	0x3e0b17d0	0.13583302
12	0x3c895427	0.01676376
13	0x3eb16f57	0.34655258
14	0x3de0c326	0.109747216
15	0x3dd29fba	0.10284372
16	0x3e12ef78	0.14349163
17	0xbe2eab26	-0.17057475
18	0xbd6b8425	-0.05749907
19	0x3c44f61d	0.012021569
20	0x3d4592be	0.048235647
21	0x3dfb294e	0.122637376
22	0x3e215885	0.15756424
23	0x3e560698	0.20900953
24	0x3e9e7705	0.3095018
25	0x3db7cf25	0.089750566
26	0x3e42faae	0.19040939
27	0x3df83b20	0.12120652
28	0x3e0e073f	0.13869952
29	0x3e81ea25	0.2537395
30	0x3d02157c	0.03175877
31	0x3e3b7c50	0.1830914
32	0x3e3b0a39	0.18265618
33	0x3c485eeb	0.012229661
34	0xbdbdbdd6	-0.09264724
35	0x3dae5694	0.08512607
36	0x3e8871d6	0.2664935
37	0x3dd6d272	0.10489358
38	0x3e4c37bd	0.19943137
39	0x3e5d3f93	0.21606283
40	0xbc9cf233	-0.019158458
41	0x3e5a81fe	0.2133865
42	0xbd13361e	-0.035940282
43	0x3e8d4455	0.27591196
44	0xbca32a17	-0.019917531
45	0xbc9987d8	-0.018741533
46	0x3e2cba2d	0.16867895
47	0x3dda5882	0.10661413
48	0x3e193b22	0.14963964
49	0x3e774c1e	0.2415013
50	0x3db7167b	0.08939835
51	0xbc0d3d7f	-0.008620619
52	0x3d3cab4e	0.046061806
53	0xba82b7d5	-0.0009972999
54	0x3e76736b	0.24067466
55	0x3e497be5	0.19676168
56	0x3e344ea7	0.17608128
57	0x3dced006	0.10098271
58	0x3e4e0872	0.20120409
59	0x3d52a33d	0.051425207
60	0x3c43d883	0.011953476
61	0x3df36377	0.11884206
62	0x3e84d8e3	0.2594672
63	0x3eb3ff1f	0.3515558
64	0x3e995598	0.29948115
65	0x3e42966b	0.19002692
66	0xbcef6eb3	-0.02922759
67	0xbd0bb42b	-0.03410737
68	0x3d17a2f0	0.037020624
69	0x3e5207be	0.20510766
70	0x3db069da	0.086139396
71	0x3eb03555	0.3441569
72	0x3c76c085	0.015060549
73	0xbd9f6990	-0.07783806
74	0x3e104646	0.14089307
75	0x3d5ac0cb	0.053406518
76	0xbe134405	-0.14381416
77	0x3cdc4367	0.026887609
78	0x3ebad139	0.3648775
79	0xbe0c8a45	-0.1372462
80	0x3e9c4f51	0.30529264
81	0x3dfdc13f	0.123903744
82	0xbdea9aa3	-0.11455276
83	0x3e5476f1	0.20748498
84	0x3d24dec2	0.0402515
85	0x3e5eea2d	0.21769018
86	0x3ccd24f7	0.02504204
87	0x3de5e8d9	0.11226053
88	0x3da589d3	0.080829285
89	0x3e0c0793	0.13674764
90	0x3dfbd033	0.1229557
91	0x3e885710	0.26628923
92	0x3ddc5806	0.10758977
93	0xbd2f387e	-0.042778485
94	0x3df4f48d	0.11960707
95	0x3e543022	0.20721486
96	0x3df6f78a	0.12058933
97	0x3eb481ce	0.35255283
98	0x3e8fcd33	0.28086242
99	0xbd902b10	-0.070394635
100	0x3e529193	0.20563345
101	0x3e8544f9	0.26029184
102	0x3e922fc2	0.2855206
103	0x3dd505de	0.1040151
104	0x3e3a7786	0.18209657
105	0xbd8228df	-0.06355452
106	0x3e36f4c8	0.17866814
107	0x3ea55286	0.32289523
108	0x3ec2ec8a	0.3807109
109	0x3debf6b9	0.11521668
110	0x3db87210	0.09006131
111	0x3d9b0663	0.075695775
112	0x3e84ff80	0.2597618
113	0x3ed77e34	0.42088473
114	0x3e7bcc42	0.24589637
115	0x3d66c9a0	0.05634463
116	0x3da9e5cc	0.082957834
117	0xbd5b4246	-0.05353
118	0x3e8cd8d4	0.27509177
119	0x3d475e6b	0.04867403
120	0x3e9684a5	0.29398075
121	0xbd203245	-0.03911044
122	0xbdaa6e2a	-0.083217934
123	0x3e73a116	0.23791918
124	0x3df48458	0.11939305
125	0x3e15ae29	0.14617218
126	0x3d928b6e	0.071555
127	0x3ecf0e61	0.40440658

fc3.weight f4 [10, 128]
0	0x3c6a333e	0.014294444
1	0xbe3626e4	-0.17788273
2	0x3d05fba4	0.032710686
3	0xbe06dfb5	-0.13171275
4	0xbecc00f7	-0.39844486
5	0x3e050566	0.1299034
6	0xbd44961a	-0.04799471
7	0x3d331a19	0.04372606
8	0xbea9518f	-0.33070037
9	0xbed7e409	-0.42166165
10	0x3d86ed14	0.06588188
11	0x3dda6350	0.106634736
12	0x3d88424f	0.06653272
13	0xbe4d77f6	-0.20065293
14	0xbe0d17fe	-0.13778684
15	0x3d97af8c	0.0740653
16	0x3e146558	0.14491785
17	0x3cc30035	0.02380381
18	0x3e408d5c	0.18803924
19	0x3e29e2b8	0.16590393
20	0x3e2d37a3	0.16915755
21	0xbe279fc7	-0.16369544
22	0x3ed87938	0.42279983
23	0xbe1d979e	-0.15389869
24	0x3e10c8bd	0.14139076
25	0xbe8c8ba1	-0.27450278
26	0xbedc0b90	-0.4297757
27	0x3e36888a	0.17825523
28	0x3c75f5b6	0.015012195
29	0x3e012bc8	0.12614357
30	0x3e261786	0.16219911
31	0xbe92b81f	-0.28656098
32	0x3eb1b636	0.34709328
33	0xbe8c884e	-0.27447742
34	0x3e04db34	0.12974244
35	0xbe2695c0	-0.16268063
36	0xbec73816	-0.38909978
37	0xbef6c4cc	-0.4819702
38	0xbe7d78e1	-0.24753143
39	0xbe75da62	-0.24009088
40	0x3e2163c1	0.1576071
41	0x3cd030ff	0.025413988
42	0x3df48973	0.11940279
43	0x3dff97c3	0.12480118
44	0x3e2cba2f	0.16867898
45	0xbee39db7	-0.44456264
46	0xbe63fe71	-0.2226503
47	0xbe11b7e1	-0.142303
48	0xbeab5226	-0.33461112
49	0xbe695542	-0.2278643
50	0xbe99f856	-0.30072278
51	0x3e5291cb	0.20563428
52	0x3d6eff1c	0.05834876
53	0xbd25b5cc	-0.040456578
54	0xbe3f84f6	-0.18703064
55	0xbe9e7142	-0.30945784
56	0x3e71c2e1	0.23609497
57	0xbdc1a49b	-0.09455224
58	0xbe3104e5	-0.17287023
59	0xbe426ed8	-0.18987596
60	0x3dd3c3c3	0.10340073
61	0xbeab7afa	-0.3349226
62	0x3d4e6f64	0.0503992
63	0xbde308b7	-0.110856466
64	0xbe4beb8d	-0.19914074
65	0x3d675446	0.056476854
66	0xbe06b950	-0.13156629
67	0xbe214495	-0.15748818
68	0xbd543dd2	-0.05181677
69	0xbe17b6b3	-0.14815788
70	0xbe81a85f	-0.2532377
71	0xbc985511	-0.01859525
72	0x3e16f916	0.14743456
73	0x3df2b8f7	0.118516855
74	0xbe158ef5	-0.14605315
75	0x3e3303eb	0.17481963
76	0xbef1c6ec	-0.47222078
77	0x3e16eb96	0.14738306
78	0xbd477c45	-0.048702497
79	0xbe9267cb	-0.28594813
80	0x3e1c5b94	0.1526931
81	0x3d59a459	0.05313525
82	0xbdebabb1	-0.11507357
83	0xbe42cf39	-0.19024362
84	0x3d22a21d	0.039705385
85	0x3e90d497	0.28287193
86	0x3dfd4600	0.12366867
87	0xbed4bd57	-0.41550705
88	0x3e0326d6	0.12807783
89	0x3dc82254	0.097721726
90	0x3e43a349	0.19105257
91	0x3e4fcea9	0.20293678
92	0xbed7a16a	-0.42115337
93	0xbef3fffd	-0.4765624
94	0xbe786b36	-0.24259648
95	0x3da72835	0.08161966
96	0xbda9dfbe	-0.082946286
97	0x3dd736f8	0.10508531
98	0x3da6b265	0.08139495
99	0x3e03f818	0.12887609
100	0xbcc7f7f0	-0.024410218
101	0x3dd64e1e	0.104641184
102	0x3e08bf3f	0.13354205
103	0xbe81c846	-0.2534811
104	0xbe6ef4e7	-0.2333561
105	0xbee804c7	-0.45316145
106	0xbede6094	-0.43433058
107	0xbe6f0378	-0.23341167
108	0xbe9a5036	-0.3013932
109	0xbe8b0ba2	-0.27157313
110	0xbe891c3b	-0.2677935
111	0x3df6cda6	0.12050943
112	0x3dfa37ad	0.122176506
113	0x3e211109	0.15729155
114	0x3dc70dae	0.09719406
115	0xbf1ee016	-0.6206068
116	0xbe475d7a	-0.19469252
117	0xbe6e0baf	-0.23246644
118	0xbe13c1f6	-0.14429459
119	0xbea7dfea	-0.3278802
120	0x3c6710b5	0.014103104
121	0x3cbe49a2	0.02322847
122	0xbe49da2d	-0.19712134
123	0x3e085d79	0.13316907
124	0xbea0f992	-0.31440407
125	0x3e27b544	0.16377741
126	0xbc3dbe5d	-0.011581031
127	0x3e0383ea	0.1284329
128	0xbe2bad3f	-0.16765307
129	0x3e22c110	0.1589396
130	0x3c4a93f3	0.012364375
131	0x3e44b7cc	0.19210738
132	0xbd187fc7	-0.037231233
133	0x3d40235b	0.046908718
134	0x3dd1fe35	0.10253564
135	0xbe468d1c	-0.19389766
136	0xbe7eb2a5	-0.24872835
137	0x3c1103c5	0.008850996
138	0xbe741e5d	-0.23839708
139	0xbe4b3ef1	-0.19848229
140	0xbe827581	-0.25480273
141	0x3e68f853	0.22750978
142	0x3e1f136f	0.15534757
143	0xbe57adc2	-0.21062377
144	0xbec40dc0	-0.3829174
145	0x3da4970b	0.08036622
146	0xbe8d102f	-0.2755141
147	0xbdac0be1	-0.08400703
148	0xbd5c5329	-0.053790245
149	0x3de385a4	0.11109474
150	0xbedadf76	-0.42748612
151	0x3e2456b6	0.16048703
152	0xbe672ebe	-0.22576424
153	0x3e53aff9	0.20672597
154	0x3e06b57a	0.13155165
155	0xbe19558f	-0.14974044
156	0xbe2b2e37	-0.16716848
157	0xbe370cc3	-0.17875962
158	0xbeac254f	-0.33622214
159	0xbdc1a7b8	-0.09455818
160	0xbe78f31e	-0.24311492
161	0xbe34ec3e	-0.17668244
162	0xbea6705b	-0.32507595
163	0x3e8a3308	0.2699206
164	0xbd22e92c	-0.03977315
165	0xbdb1227c	-0.086491555
166	0x3e1527b6	0.1456593
167	0x3e84c66b	0.2593263
168	0xbe900359	-0.28127554
169	0xbe3d62da	-0.1849474
170	0xbe987d86	-0.29783267
171	0x3e1a1bee	0.15049717
172	0xbd566498	-0.052342027
173	0x3de2112d	0.11038432
174	0xbea11cbb	-0.31467232
175	0xbeb579b9	-0.3544443
176	0xbe6f5896	-0.23373637
177	0x3e4c6cc7	0.1996337
178	0x3ddfa08e	0.10919295
179	0xbe145553	-0.14485674
180	0x3d8daeea	0.06918128
181	0x3d974a7e	0.07387255
182	0x3e90303e	0.28161806
183	0xbefa986c	-0.48944414
184	0xbe57843c	-0.21046537
185	0xbea534de	-0.32266897
186	0x3e965b3d	0.29366484
187	0xbe4434a6	-0.19160709
188	0xbea63765	-0.32464138
189	0x3e7171a5	0.23578508
190	0xbea3d5ad	-0.3199896
191	0x3e4a41ae	0.19751617
192	0x3e1b3d2c	0.15160054
193	0xbe31f6cd	-0.17379303
194	0x3e3f27e8	0.18667567
195	0x3e04539a	0.12922516
196	0xbe58fb6d	-0.21189661
197	0xbe22a559	-0.15883388
198	0x3df71536	0.120645925
199	0x3debb477	0.1150903
200	0x3d8db80a	0.06919868
201	0xbe9abc78	-0.30221915
202	0x3e58e581	0.21181299
203	0x3e3f7b4c	0.18699378
204	0x3de4cad7	0.11171501
205	0xbf01b9e2	-0.5067426
206	0xbe806d1f	-0.25083253
207	0x3e0039c6	0.12522039
208	0xbe685649	-0.22689165
209	0xbe085dad	-0.13316984
210	0xbccb60a1	-0.02482635
211	0xbe2eba10	-0.17063165
212	0xbc2a8e9b	-0.010409976
213	0x3e4f5b92	0.20249775
214	0xbeaac9c2	-0.33357054
215	0x3e31e5c7	0.1737281
216	0xbd476f22	-0.04868997
217	0xbeb122b8	-0.345968
218	0xbeb94195	-0.36182848
219	0xbe32d519	-0.17464103
220	0xbe30b49d	-0.17256398
221	0x3e2a2595	0.16615899
222	0x3da942c5	0.082646884
223	0x3dbe1978	0.092822015
224	0x3e7d9534	0.24763948
225	0xbecc9867	-0.39960024
226	0xbe49e076	-0.19714531
227	0xbe31614c	-0.17322272
228	0xbede8d4a	-0.4346717
229	0xbec2ce19	-0.38047865
230	0xbeb55fda	-0.3542469
231	0x3e1ff319	0.15620078
232	0xbe3008c3	-0.17190842
233	0x3e952554	0.29130042
234	0xbe269541	-0.16267873
235	0x3de7618b	0.11297902
236	0x3e04bea8	0.12963355
237	0x3ded5579	0.11588568
238	0xbe71f41f	-0.23628281
239	0xbdc40eca	-0.09573133
240	0xbe1e9897	-0.15487896
241	0xbe00b13a	-0.12567607
242	0x3e2b5275	0.16730674
243	0x3d89bdcb	0.06725653
244	0xbe04b398	-0.12959135
245	0xbd6a130c	-0.05714707
246	0xbe154efb	-0.1458091
247	0x3debff7c	0.11523339
248	0xbe9159fa	-0.2838896
249	0xbe41e250	-0.18933988
250	0x3df5081a	0.11964436
251	0xbe32050e	-0.1738474
252	0x3e000e01	0.12505342
253	0x3de7fb4f	0.1132723
254	0xbd85ee82	-0.065396324
255	0x3e2cf34b	0.16889684

fc3.bias f4 [10]
0	0x3e466db6	0.19377789
1	0x3cf40061	0.029785337
2	0xbe80c30b	-0.25148806
3	0xbdef90f1	-0.11697567
4	0x3de96679	0.11396498
5	0xbe9b5aa2	-0.30342585
6	0xbdefa8c1	-0.11702109
7	0xbd468d4e	-0.048474602
8	0x3e65c3c8	0.22437966
9	0x3cde3257	0.027123613
